gan_inv/checkpoints/weights/v0.1/vgg.pth (torch_old, 7289 bytes, 5 tensors)

lin0.model.1.weight f4 [1, 64, 1, 1]
0.05011166 0.03931232 0.046400715 0.06906958 0.043435898 0.04354923 0.06913455 0.06358675
0.038782705 0.17765014 0.051363666 0.03551862 0.038282514 0.03392456 0.04283267 0.3781457
0.050100356 0.060582723 0.044984143 0.41768062 1.2828162 0.21517569 0.02909836 0.22660057
0.065929584 0.03525092 0.26464877 0.036652405 0.15100262 0.060725562 0.07086032 0.07053507
0.050007097 0.031368807 0.04933446 0.042986944 0.05051061 0.12892924 0.062525645 0.031220352
0.3725475 0.48079592 0.034037095 0.049114216 0.062268607 0.045215428 0.2768826 0.03055898
0.04230243 0.032633055 0.028667843 0.041593704 0.025947757 0.046961587 0.05220558 0.07235665
0.15993264 0.045297176 0.07399359 0.033738077 0.07733146 0.03550146 0.021017654 0.034462385
00000000: e241 4d3d f505 213d ad0e 3e3d 5a74 8d3d
00000010: d7e9 313d ad60 323d 6a96 8d3d c539 823d
00000020: 9dda 1e3d ebe9 353e b562 523d f97b 113d
00000030: 20ce 1c3d 7bf4 0a3d 4f71 2f3d 509c c13e
00000040: 0836 4d3d 9725 783d 4b41 383d 3cda d53e
00000050: 5233 a43f 0457 5c3e af5f ee3c fb09 683e
00000060: 1706 873d 4563 103d 0b80 873e d520 163d
00000070: 6ea0 1a3e 5ebb 783d 371f 913d b174 903d
00000080: 3ed4 4c3d 947c 003d ee12 4a3d 1413 303d
00000090: 37e4 4e3d 0706 043e 720d 803d d3c1 ff3c
000000a0: 8cbe be3e e22a f63e 7b6a 0b3d fd2b 493d
000000b0: 5e0d 7f3d d033 393d 8ec3 8d3e d356 fa3c
000000c0: 5045 2d3d 3daa 053d d3d8 ea3c 295e 2a3d
000000d0: 6490 d43c cb5a 403d 85d5 553d b92f 943d
000000e0: 62c5 233e 8889 393d f489 973d f030 0a3d
000000f0: f55f 9e3d fb69 113d 372d ac3c 6e28 0d3d

lin1.model.1.weight f4 [1, 128, 1, 1]
0.039409373 0.47568023 0.03353423 0.040019162 0.06648549 0.04535727 0.18544215 0.06358643
0.055517767 0.040531006 0.03690195 0.027941767 0.0401097 0.0703394 0.061400123 0.07175198
0.06514585 0.07211114 0.05057597 0.06982772 0.036409594 0.020252222 0.06773623 0.06817142
0.2654785 0.03451139 0.070805214 0.05725361 0.050997585 0.07261777 0.055933148 0.0694211
0.052737664 0.062594965 0.067701265 0.034121867 0.07769381 0.043146733 0.04083452 0.07073268
0.03283372 0.051254615 0.06812941 0.06873344 0.06690178 0.03022454 0.060624164 0.04370191
0.03736305 0.26521525 0.029368725 0.009468972 0.03461385 0.07362794 0.07113969 0.038991053
0.043117225 0.041421305 0.05263629 0.032135487 0.25253752 0.042424485 0.039345417 0.06755665
0.42913604 0.06378569 0.014182692 0.046166465 0.059618358 0.042197768 0.013436857 0.038656514
0.03826865 0.06059276 0.06566327 0.058464255 0.26733527 0.32422963 0.034035213 0.041736946
0.06514261 0.04511011 0.053036198 0.05350314 0.06353363 0.070333235 0.056222234 0.14192002
0.061227974 0.071435004 0.04801093 0.0635581 0.03459655 0.04090635 0.06607771 0.06706795
0.039734073 0.05723118 0.037584025 0.07161957 0.0679045 0.07402111 0.040981404 0.06862073
0.058330625 0.041428015 0.052035697 0.045334354 0.06921648 0.0701765 0.061252497 0.03889397
0.047323953 0.06856546 0.034619648 0.049759682 0.04949826 0.04593089 0.05444014 0.031105584
0.051620297 0.07431492 0.06577189 0.06681615 0.06704475 0.044568196 0.057490252 0.071724616
00000000: b96b 213d 5c8c f33e 305b 093d 22eb 233d
00000010: 8b29 883d 8bc8 393d 8ce4 3d3e 9a39 823d
00000020: 9966 633d d703 263d 8026 173d 22e6 e43c
00000030: 124a 243d 1a0e 903d b27e 7b3d b4f2 923d
00000040: 306b 853d 01af 933d c028 4f3d d601 8f3d
00000050: 3a22 153d fde7 a53c 4bb9 8a3d 759d 8b3d
00000060: ccec 873e d15b 0d3d 5302 913d c382 6a3d
00000070: d8e2 503d a0b8 943d 281a 653d a62c 8e3d
00000080: 7303 583d ca31 803d f6a6 8a3d 5fc3 0b3d
00000090: ef1d 9f3d a1ba 303d 1942 273d 4cdc 903d
000000a0: a77c 063d 5cf0 513d 6f87 8b3d 1ec4 8c3d
000000b0: cd03 893d 7499 f73c 0b51 783d c600 333d
000000c0: ff09 193d 4bca 873e ae96 f03c bf23 1b3c
000000d0: 41c7 0d3d 3fca 963d b0b1 913d 15b5 1f3d
000000e0: b09b 303d 63a9 293d 2799 573d 80a0 033d
000000f0: 994c 813e 4cc5 2d3d a928 213d 245b 8a3d
00000100: b8b7 db3e 12a2 823d 865e 683c 0c19 3d3d
00000110: 6132 743d 91d7 2c3d 4326 5c3c 4b56 1e3d
00000120: 97bf 1c3d 1d30 783d 777a 863d 3778 6f3d
00000130: 2be0 883e 6d01 a63e 8268 0b3d 5cf4 2a3d
00000140: 7d69 853d 61c5 383d 7c3c 593d 1c26 5b3d
00000150: eb1d 823d df0a 903d 4949 663d 7b53 113e
00000160: 2fca 7a3d 844c 923d 1ca7 443d c02a 823d
00000170: 1db5 0d3d 6b8d 273d c053 873d ec5a 893d
00000180: 32c0 223d 3e6b 6a3d b5f1 193d 48ad 923d
00000190: 8411 8b3d 6198 973d 1edc 273d 0689 8c3d
000001a0: 18ec 6e3d 6cb0 293d 6223 553d 84b0 393d
000001b0: 5fc1 8d3d b2b8 8f3d e6e3 7a3d 494f 1f3d
000001c0: c3d6 413d 0c6c 8c3d 55cd 0d3d cfd0 4b3d
000001d0: b0be 4a3d 0722 3c3d a0fc 5e3d 23d1 fe3c
000001e0: ce6f 533d 6c32 983d 6ab3 863d e8d6 883d
000001f0: c24e 893d 248d 363d e67a 6b3d 5be4 923d

lin2.model.1.weight f4 [1, 256, 1, 1]
0.057933863 0.06574116 0.07037 0.06510398 0.06816579 0.05549013 0.06591102 0.07214025
0.059664194 0.070912115 0.06197971 0.055259924 0.063640766 0.059382636 0.072897606 0.07115518
0.062529236 0.059438802 0.068791345 0.07365547 0.070581 0.07269268 0.057040296 0.07285882
0.054962065 0.06970045 0.06563438 0.04692895 0.05596952 0.067948356 0.063239425 0.057728503
0.06625161 0.06997971 0.060851097 0.06677853 0.059709962 0.04436781 0.066999964 0.062008508
0.0668117 0.06288581 0.05681218 0.071698904 0.06696379 0.06329938 0.063256264 0.06835332
0.067289084 0.060407303 0.065906 0.06506718 0.0633507 0.068796575 0.070411146 0.07185897
0.060924914 0.06482213 0.06409284 0.06439353 0.06298249 0.060955573 0.066707425 0.06566466
0.037710946 0.06426136 0.059173547 0.060462985 0.06830543 0.06003418 0.066729076 0.066486634
0.054110102 0.07114563 0.05933833 0.06384704 0.065863416 0.07393365 0.06978739 0.062334538
0.06433426 0.060398944 0.06578206 0.06574926 0.06717053 0.07019636 0.06726011 0.066120386
0.065522045 0.06463117 0.057523638 0.06804802 0.06368476 0.054996695 0.05894879 0.06667289
0.067336224 0.07042546 0.057536647 0.07119107 0.06630717 0.05647489 0.056741755 0.071562305
0.06660154 0.073227376 0.059357002 0.06711186 0.073073775 0.068261646 0.0746457 0.06610808
0.45278072 0.067551844 0.056132007 0.06605161 0.06203793 0.05292277 0.056889683 0.0688633
0.5065465 0.043601025 0.0722419 0.07078381 0.06506526 0.06123613 0.06295341 0.07234007
0.054558482 0.065690696 0.07309136 0.072476804 0.07087746 0.054737024 0.061205897 0.061822135
0.0744095 0.07733309 0.060766347 0.058483083 0.058941353 0.060164616 0.06252598 0.07229376
0.068759024 0.059614133 0.069729626 0.06484945 0.06750106 0.06637204 0.07120029 0.06724322
0.06405741 0.06275021 0.068569206 0.071579665 0.06907391 0.064291894 0.0657558 0.057731993
0.0635768 0.05753746 0.056235183 0.04830954 0.058365174 0.067009255 0.05985504 0.06895208
0.06839484 0.06953674 0.051735345 0.06715914 0.068471074 0.30605268 0.058144342 0.055311278
0.07212878 0.07373738 0.062593065 0.058104042 0.065421246 0.112848625 0.07708935 0.07473213
0.05519543 0.05603957 0.061077625 0.058829367 0.066718936 0.06885338 0.05084797 0.07015187
0.071793936 0.05486669 0.07101253 0.062590115 0.07328243 0.054670457 0.059923857 0.063380286
0.05829081 0.06606335 0.05506737 0.058382433 0.06457439 0.0741385 0.062328376 0.057944622
0.05909309 0.064948425 0.0842938 0.07099828 0.06863653 0.066735476 0.06731879 0.0725844
0.054664895 0.07069739 0.06572982 0.06522267 0.06452703 0.060272872 0.07139982 0.056634013
0.056049656 0.056272496 0.07370798 0.065274656 0.064960286 0.057786 0.0746911 0.059561
0.06659469 0.06985915 0.063887924 0.056398507 0.059060637 0.06276062 0.0680586 0.049222365
0.05760273 0.06344421 0.05203699 0.05929345 0.04368212 0.069759 0.065042764 0.06969266
0.06401403 0.07178455 0.053575773 0.059718184 0.059625745 0.059168737 0.06845038 0.063799016
00000000: 0f4c 6d3d 4da3 863d 261e 903d 3c55 853d
00000010: 819a 8b3d 9e49 633d 5bfc 863d 44be 933d
00000020: 7162 743d 5f3a 913d 70de 7d3d 3b58 623d
00000030: 1756 823d 353b 733d 574b 953d cfb9 913d
00000040: 540f 803d 1a76 733d 7ae2 8c3d aed8 963d
00000050: c58c 903d e6df 943d 16a3 693d 0137 953d
00000060: e71f 613d 1cbf 8e3d 516b 863d 9238 403d
00000070: 4c40 653d 8228 8b3d ac83 813d b974 6c3d
00000080: edae 873d 8651 8f3d 003f 793d 2fc3 883d
00000090: 6f92 743d 05bb 353d 4737 893d a2fc 7d3d
000000a0: 93d4 883d 47ca 803d e3b3 683d e0d6 923d
000000b0: 5024 893d 1ba3 813d 808c 813d d3fc 8b3d
000000c0: dcce 893d a66d 773d baf9 863d f141 853d
000000d0: 03be 813d 38e5 8c3d b833 903d cc2a 933d
000000e0: 678c 793d 77c1 843d 1b43 833d c1e0 833d
000000f0: f7fc 803d 8dac 793d e79d 883d 317b 863d
00000100: cb76 1a3d 769b 833d f65f 723d 09a8 773d
00000110: b8e3 8b3d 66e6 753d 41a9 883d 252a 883d
00000120: 8ea2 5d3d cdb4 913d c00c 733d 3dc2 823d
00000130: 66e3 863d 876a 973d b1ec 8e3d 8052 7f3d
00000140: aec1 833d e264 773d bfb8 863d 8ca7 863d
00000150: b490 893d 1cc3 8f3d abbf 893d 206a 873d
00000160: 6c30 863d 595d 843d e89d 6b3d c35c 8b3d
00000170: 286d 823d 3744 613d 4974 713d cc8b 883d
00000180: 93e7 893d 393b 903d 8cab 6b3d a0cc 913d
00000190: 0ecc 873d 3752 673d 0b6a 683d 428f 923d
000001a0: 6366 883d 3cf8 953d 5420 733d f171 893d
000001b0: b4a7 953d c3cc 8b3d d8df 983d ac63 873d
000001c0: e0d2 e73e 9f58 8a3d adea 653d 1146 873d
000001d0: 7c1b 7e3d 8cc5 583d 2805 693d 3408 8d3d
000001e0: 08ad 013f fd96 323d 90f3 933d 1af7 903d
000001f0: ef40 853d bcd2 7a3d b8ed 803d 0827 943d
00000200: b778 5f3d d888 863d ecb0 953d b86e 943d
00000210: 3428 913d ee33 603d 09b3 7a3d 3539 7d3d
00000220: 0264 983d d060 9e3d 22e6 783d f58b 6f3d
00000230: 7d6c 713d 2c6f 763d 9f0d 803d c00e 943d
00000240: 88d1 8c3d f32d 743d 68ce 8e3d cacf 843d
00000250: ff3d 8a3d 10ee 873d 75d1 913d d0b6 893d
00000260: 8830 833d 2f83 803d 036e 8c3d 5c98 923d
00000270: 9f76 8d3d 78ab 833d faaa 863d 6278 6c3d
00000280: 8e34 823d 66ac 6b3d dd56 663d 39e0 453d
00000290: 5210 6f3d 263c 893d 8f2a 753d c036 8d3d
000002a0: 9812 8c3d 4769 8e3d 71e8 533d bb8a 893d
000002b0: 903a 8c3d f0b2 9c3e c328 6e3d 148e 623d
000002c0: 41b8 933d a003 973d cb30 803d 81fe 6d3d
000002d0: 93fb 853d 2e1d e73d 05e1 9d3d 290d 993d
000002e0: 9a14 623d c089 653d 882c 7a3d 10f7 703d
000002f0: f0a3 883d 0003 8d3d f645 503d c9ab 8f3d
00000300: b308 933d e5bb 603d 046f 913d 3f2f 803d
00000310: 1915 963d 21ee 5f3d b872 753d 86cd 813d
00000320: 58c2 6e3d 394c 873d 538e 613d 6b22 6f3d
00000330: 943f 843d edd5 973d 0a4c 7f3d 5757 6d3d
00000340: 990b 723d ae03 853d 3aa2 ac3d 8c67 913d
00000350: 4f91 8c3d 9cac 883d 6fde 893d 21a7 943d
00000360: 4ce8 5f3d cbc9 903d 5b9d 863d 7793 853d
00000370: bf26 843d b0e0 763d 123a 923d 11f9 673d
00000380: 5394 653d fd7d 663d 36f4 963d b8ae 853d
00000390: e609 853d 03b1 6c3d a6f7 983d 3cf6 733d
000003a0: cc62 883d 5012 8f3d acd7 823d 1f02 673d
000003b0: 91e9 713d a488 803d 4f62 8b3d 649d 493d
000003c0: d7f0 6b3d 0aef 813d bd24 553d b0dd 723d
000003d0: 06ec 323d cedd 8e3d 2435 853d 06bb 8e3d
000003e0: ca19 833d c703 933d 4572 5b3d 0e9b 743d
000003f0: 203a 743d eb5a 723d b62f 8c3d 0fa9 823d

lin3.model.1.weight f4 [1, 512, 1, 1]
0.05780801 0.06547133 0.21934384 0.12461226 0.20250495 0.059281934 0.062972546 0.06442082
0.04501157 0.19893093 0.1445828 0.071260914 0.057086024 0.066196546 0.041065443 0.053347737
0.07494367 0.064919025 0.3148007 0.06873011 0.059416305 0.11716738 0.06161082 0.20554164
0.07529266 0.062460512 0.15466094 0.0774099 0.0707082 0.06015702 0.058910344 0.06212848
0.061409313 0.052372664 0.383327 0.27499777 0.061066706 0.048408303 0.048137415 0.119478144
0.05934427 0.12572722 0.06820674 0.16535375 0.06951841 0.059879806 0.22787766 0.068078816
0.059419822 0.14400536 0.1548126 0.119001344 0.07676875 0.07234277 0.05318136 0.07113645
0.225328 0.40769595 0.17511952 0.054912433 0.06410599 0.33179995 0.060595006 0.07436055
0.19116464 0.058617182 0.0602525 0.050410204 0.3127628 0.05837823 0.10722898 0.15403871
0.05397283 0.0677429 0.059595544 0.047535975 0.20284212 0.057703093 0.15418737 0.14738826
0.06488692 0.060030114 0.048744515 0.060405016 0.073994234 0.11783192 0.06117793 0.05868196
0.069612786 0.09364784 0.060788028 0.102008335 0.05606438 0.061816365 0.05785044 0.049545024
0.23584074 0.074765615 0.05858137 0.15762073 0.19936082 0.07225808 0.115472436 0.039098237
0.074511655 0.05807805 0.12751736 0.06737459 0.12691137 0.049505144 0.17839527 0.078146406
0.05792043 0.058685567 0.28653458 0.11088073 0.06249879 0.124964714 0.08008602 0.23170948
0.05950934 0.058821805 0.05673498 0.06299192 0.054128624 0.062960304 0.06780255 0.06210241
0.05894533 0.09502993 0.15967405 0.1550649 0.058656015 0.11987164 0.3849311 0.09346738
0.063399576 0.10011928 0.061384194 0.06996561 0.06615284 0.11328352 0.06952628 0.062367935
0.055980552 0.16869214 0.05510735 0.062475406 0.07208536 0.07338383 0.05720457 0.12505883
0.14221162 0.061043598 0.05833344 0.06366772 0.06341661 0.06731034 0.08419932 0.05346297
0.05832672 0.07629835 0.06935128 0.058289617 0.060869053 0.06348673 0.06641621 0.09446927
0.06468858 0.047983818 0.06646592 0.06221822 0.052308746 0.069408 0.062880665 0.058849562
0.041650027 0.17419569 0.04864321 0.042474702 0.15530495 0.14887266 0.05007466 0.053847242
0.046845656 0.06403601 0.09283442 0.0665697 0.09777837 0.08461171 0.05634981 0.0887368
0.048226085 0.14432797 0.059036944 0.064950965 0.06272728 0.29330504 0.077743076 0.05013189
0.059435613 0.055919226 0.055476867 0.13490671 0.064376146 0.053518787 0.06306685 0.058221243
0.070955195 0.064690284 0.14603789 0.057307143 0.051583897 0.06898714 0.06369585 0.5872805
0.30851012 0.18056975 0.06902812 0.069313414 0.06223975 0.17802171 0.056070004 0.049599163
0.11181931 0.25654712 0.06206122 0.07669741 0.061776217 0.056958016 0.11948804 0.07094436
0.100322284 0.05657306 0.11506729 0.117440596 0.061240315 0.41195372 0.06718641 0.061710414
0.19021064 0.041649994 0.057124227 0.05214033 0.066571996 0.20434979 0.0640318 0.076538995
0.0671722 0.04941309 0.06471643 0.060524695 0.074775755 0.050379496 0.06024355 0.19407907
00000000: 18c8 6c3d d515 863d ac9b 603e b634 ff3d
00000010: 755d 4f3e 9dd1 723d c0f7 803d 10ef 833d
00000020: 0d5e 383d 8db4 4b3e 830d 143e 3ef1 913d
00000030: 09d3 693d 0e92 873d 3d34 283d 2883 5a3d
00000040: 117c 993d 44f4 843d 8f2d a13e 5fc2 8c3d
00000050: 835e 733d 74f5 ef3d a15b 7c3d 8279 523e
00000060: 0a33 9a3d 98d6 7f3d 705f 1e3e 1589 9e3d
00000070: 76cf 903d 3567 763d f94b 713d 6f7a 7e3d
00000080: 5588 7b3d b884 563d 7043 c43e 82cc 8c3e
00000090: 1521 7a3d c947 463d bd2b 453d f5b0 f43d
000000a0: fa12 733d a3be 003e faaf 8b3d 7e52 293e
000000b0: ab5f 8e3d 8744 753d c358 693e e86c 8b3d
000000c0: 3362 733d 2476 133e 3287 1e3e fab6 f33d
000000d0: ef38 9d3d 7228 943d b3d4 593d fdaf 913d
000000e0: 62bc 663e 86bd d03e 8852 333e dceb 603d
000000f0: 004a 833d afe1 a93e 7832 783d 584a 983d
00000100: aac0 433e 9218 703d 53cb 763d ee7a 4e3d
00000110: 7222 a03e 031e 6f3d de9a db3d 53bc 1d3e
00000120: 9d12 5d3d cabc 8a3d 751a 743d 15b5 423d
00000130: d8b5 4f3e 145a 6c3d 4be3 1d3e f3ec 163e
00000140: 6fe3 843d 23e2 753d 54a8 473d 406b 773d
00000150: 4a8a 973d dd51 f13d b695 7a3d 7f5c 703d
00000160: 2691 8e3d 70ca bf3d defc 783d bfe9 d03d
00000170: c3a3 653d 2833 7d3d 95f4 6c3d b9ef 4a3d
00000180: 3c80 713e b71e 993d 05f3 6f3d 5467 213e
00000190: 3e25 4c3e 0bfc 933d d07c ec3d 7925 203d
000001a0: 9199 983d 40e3 6d3d e993 023e b0fb 893d
000001b0: 0ef5 013e e8c5 4a3d 40ad 363e 390b a03d
000001c0: f93d 6d3d 4760 703d a9b4 923e 7015 e33d
000001d0: bbfe 7f3d 80ed ff3d 2404 a43d 4045 6d3e
000001e0: 11c0 733d 22ef 703d f062 683d e801 813d
000001f0: fab5 5d3d 55f1 803d 10dc 8a3d 195f 7e3d
00000200: a970 713d 0d9f c23d 9881 233e 55c9 1e3e
00000210: 4a41 703d 437f f53d b015 c53e d36b bf3d
00000220: a3d7 813d 560b cd3d fe6d 7b3d 214a 8f3d
00000230: 247b 873d 3101 e83d cb63 8e3d 8575 7f3d
00000240: dd4b 653d a2bd 2c3e 3fb8 613d 36e6 7f3d
00000250: 7da1 933d 434a 963d 574f 6a3d 6c0f 003e
00000260: ec9f 113e da08 7a3d 0cef 6e3d 3964 823d
00000270: 91e0 813d 01da 893d b170 ac3d fdfb 5a3d
00000280: 00e8 6e3d 4f42 9c3d 0b08 8e3d 18c1 6e3d
00000290: d451 793d 5505 823d 3905 883d 1b79 c13d
000002a0: 727b 843d ae8a 443d 491f 883d 88d8 7e3d
000002b0: b241 563d c825 8e3d 94c7 803d 3d0c 713d
000002c0: 3899 2a3d 5b60 323e 1a3e 473d f4f9 2d3d
000002d0: 4308 1f3e 1372 183e 161b 4d3d ed8e 5c3d
000002e0: 3be1 3f3d 5025 833d f91f be3d b255 883d
000002f0: 0740 c83d e748 ad3d 0fcf 663d a4bb b53d
00000300: b788 453d b6ca 133e b9d0 713d 0305 853d
00000310: 2977 803d 142c 963e c337 9f3d 1957 4d3d
00000320: c272 733d 8f0b 653d b63b 633d fc24 0a3e
00000330: a4d7 833d 8436 5b3d 3129 813d 6679 6e3d
00000340: f550 913d 577c 843d f58a 153e e5ba 6a3d
00000350: a349 533d 2149 8d3d f872 823d 0458 163f
00000360: 0af5 9d3e 47e7 383e 9d5e 8d3d 31f4 8d3d
00000370: 1cef 7e3d 534b 363e a9a9 653d 7e28 4b3d
00000380: 8601 e53d 255a 833e e833 7e3d 8813 9d3d
00000390: 0f09 7d3d cf4c 693d 25b6 f43d 474b 913d
000003a0: c575 cd3d 27b9 673d 66a8 eb3d b284 f03d
000003b0: 20d7 7a3d 99eb d23e 0799 893d 0fc4 7c3d
000003c0: 94c6 423e 2f99 2a3d 18fb 693d 1991 553d
000003d0: e656 883d 1241 513e 1b23 833d 7ac0 9c3d
000003e0: 9491 893d 6165 4a3d 0c8a 843d bee8 773d
000003f0: 0824 993d bb5a 4e3d f1c1 763d aabc 463e

lin4.model.1.weight f4 [1, 512, 1, 1]
0.042680405 0.1184549 0.06353027 0.06552629 0.09240999 0.10103446 0.06264926 0.07240966
0.1319985 0.11620453 0.07297657 0.2699112 0.14412387 0.039704178 0.1041096 0.0692281
0.053967997 0.054554213 0.039092135 0.039792575 0.21026345 0.14108281 0.084412545 0.04266046
0.13542795 0.049973946 0.073647656 0.055130646 0.05118465 0.11072142 0.20705955 0.1093766
0.06666214 0.081697844 0.081693806 0.0890089 0.047594525 0.080071375 0.03988971 0.06986599
0.08191223 0.09383484 0.15574805 0.05497359 0.062429916 0.14687875 0.12190596 0.10095174
0.042894524 0.09949168 0.06139697 0.019278834 0.20157929 0.07148002 0.09896638 0.14660773
0.18152325 0.07828795 0.14746167 0.1299946 0.032721467 0.037832186 0.07279706 0.14086533
0.16832533 0.05716844 0.063424714 0.16621445 0.0860903 0.1680259 0.18414845 0.053235695
0.10608862 0.09543615 0.11805082 0.10927947 0.047091328 0.06783224 0.054205794 0.08724279
0.1426181 0.077738516 0.06685212 0.029839726 0.103778735 0.12764294 0.10274104 0.040047035
0.034283724 0.078592695 0.08871319 0.23041344 0.07626826 0.1833635 0.068967685 0.03915987
0.061443906 0.22049057 0.109931864 0.11006592 0.039200027 0.12061245 0.040425792 0.039789625
0.21715571 0.10151285 0.05904639 0.12482186 0.032836165 0.044065993 0.06435525 0.055580985
0.07016684 0.07617917 0.11587508 0.06680367 0.05375228 0.08268698 0.09885003 0.45843714
0.028448727 0.11490194 0.1506804 0.15836802 0.040996004 0.06023342 0.12982947 0.12907884
0.106665194 0.10578747 0.18440053 0.15879232 0.04231158 0.048870537 0.029457668 0.08949265
0.07536607 0.13465488 0.080098405 0.13246569 0.05937497 0.16802405 0.07132885 0.14907427
0.02782996 0.06542721 0.06295024 0.032853622 0.09777145 0.04443797 0.09999673 0.13209407
0.11912878 0.0829174 0.09921779 0.03957405 0.04704182 0.16681173 0.10538367 0.09622772
0.10084203 0.11676414 0.08623345 0.050349314 0.05176334 0.10215585 0.21155201 0.19042644
0.06771094 0.111571506 0.080711156 0.075359896 0.099953964 0.081355095 0.06645158 0.15122631
0.069761 0.10993225 0.062455785 0.13027187 0.15292294 0.18497765 0.07818191 0.06403384
0.10610192 0.021739857 0.08956858 0.061313674 0.09162476 0.058318157 0.07363538 0.14141265
0.07252024 0.0772086 0.14230616 0.055256728 0.14282261 0.07101964 0.0270407 0.078372866
0.046560008 0.09035398 0.18750893 0.20851327 0.042930182 0.041648768 0.057371926 0.0706592
0.16301559 0.061871104 0.0868621 0.11287218 0.03368953 0.072692916 0.07423432 0.06612002
0.054431107 0.036205083 0.13920356 0.093967855 0.04753565 0.14187494 0.050612945 0.09253869
0.04030895 0.02031276 0.04565448 0.04176479 0.066816874 0.033181407 0.12401759 0.13793635
0.073216654 0.06436582 0.048603795 0.1412574 0.103822574 0.09616875 0.05880297 0.11578476
0.060764123 0.13625382 0.031008512 0.051653203 0.094782725 0.068790615 0.2002266 0.07040418
0.17583331 0.074928224 0.17409761 0.13424261 0.16346316 0.056374446 0.13305882 0.1464297
00000000: a6d1 2e3d 7c98 f23d 281c 823d a632 863d
00000010: 7341 bd3d 28eb ce3d 414e 803d 844b 943d
00000020: 9d2a 073e a4fc ed3d bd74 953d cd31 8a3e
00000030: 3595 133e d9a0 223d 6a37 d53d 76c7 8d3d
00000040: 8c0d 5d3d 3d74 5f3d 131f 203d 8afd 223d
00000050: 4d4f 573e 0378 103e 7ce0 ac3d bcbc 2e3d
00000060: a0ad 0a3e 7bb1 4c3d 95d4 963d acd0 613d
00000070: ffa6 513d e9c1 e23d 6b07 543e d700 e03d
00000080: 2986 883d 3351 a73d 154f a73d 4c4a b63d
00000090: 7af2 423d 76fc a33d 6463 233d e615 8f3d
000000a0: 99c1 a73d 7b2c c03d 6b7c 1f3e fd2b 613d
000000b0: 83b6 7f3d 6267 163e d5a9 f93d c9bf ce3d
000000c0: 2bb2 2f3d 4bc2 cb3d 647b 7b3d a5ee 9d3c
000000d0: cd6a 4e3e 1e64 923d e3ae ca3d 5620 163e
000000e0: 3be1 393e 6f55 a03d 3100 173e 4e1d 053e
000000f0: f206 063d ecf5 1a3d a016 953d 003f 103e
00000100: 7a5d 2c3e 7429 6a3d d1e4 813d 1f34 2a3e
00000110: 1c50 b03d fb0e 2c3e 6991 3c3e ac0d 5a3d
00000120: fe44 d93d 0774 c33d a1c4 f13d eacd df3d
00000130: d6e2 403d a1eb 8a3d e506 5e3d 59ac b23d
00000140: 7b0a 123e 5f35 9f3d c4e9 883d 7172 f43c
00000150: f289 d43d d5b4 023e e569 d23d 5c08 243d
00000160: 176d 0c3d 35f5 a03d 43af b53d 80f1 6b3e
00000170: 8932 9c3d a4c3 3b3e ee3e 8d3d 1a66 203d
00000180: 9bac 7b3d 48c8 613e f523 e13d 3e6a e13d
00000190: 3590 203d a903 f73d 8495 253d 72fa 223d
000001a0: 115e 5e3e f8e5 cf3d a1da 713d 9aa2 ff3d
000001b0: 377f 063d 8b7e 343d afcc 833d e3a8 633d
000001c0: a2b3 8f3d d303 9c3d ea4f ed3d 5dd0 883d
000001d0: 5a2b 5c3d cb57 a93d e271 ca3d 46b8 ea3e
000001e0: 4e0d e93c b551 eb3d f64b 1a3e 3a2b 223e
000001f0: 6deb 273d 52b7 763d 04f2 043e 3e2d 043e
00000200: 4873 da3d 1aa7 d83d 7ed3 3c3e 749a 223e
00000210: e84e 2d3d 792c 483d 3551 f13c ec47 b73d
00000220: 8759 9a3d f8e2 093e a20a a43d 16a5 073e
00000230: 2b33 733d 7f0e 2c3e dc14 923d eda6 183e
00000240: a8fb e33c b3fe 853d 0eec 803d 8591 063d
00000250: 663c c83d 9704 363d 16cb cc3d ab43 073e
00000260: caf9 f33d 99d0 a93d b232 cb3d 6618 223d
00000270: ecae 403d b2d0 2a3e 65d3 d73d 0a13 c53d
00000280: 4486 ce3d 0a22 ef3d 2a9b b03d 153b 4e3d
00000290: cc05 543d 1637 d13d 17a1 583e 26ff 423e
000002a0: 09ac 8a3d 9a7f e43d e44b a53d 4a56 9a3d
000002b0: aab4 cc3d 809d a63d c417 883d 12db 1a3e
000002c0: dbde 8e3d 2924 e13d a3d1 7f3d fd65 053e
000002d0: d597 1c3e c86a 3d3e d61d a03d 2d24 833d
000002e0: f74b d93d c917 b23c bb6f b73d 0c24 7b3d
000002f0: c3a5 bb3d 05df 6e3d 25ce 963d 7ace 103e
00000300: 7e85 943d 8b1f 9e3d b5b8 113e e154 623d
00000310: 1740 123e bf72 913d 7584 dd3c f481 a03d
00000320: b5b5 3e3d 820b b93d 5702 403e 8184 553e
00000330: 8fd7 2f3d e697 2a3d d3fe 6a3d c5b5 903d
00000340: 8fed 263e 8e6c 7d3d c2e4 b13d 8829 e73d
00000350: 08fe 093d 06e0 943d 2a08 983d ef69 873d
00000360: 27f3 5e3d c84b 143d 618b 0e3e 3872 c03d
00000370: beb4 423d aa47 113e 854f 4f3d ed84 bd3d
00000380: ff1a 253d f266 a63c 3100 3b3d 8e11 2b3d
00000390: 49d7 883d 3ae9 073d effc fd3d 303f 0d3e
000003a0: 9df2 953d 3ad2 833d c614 473d c8a5 103e
000003b0: eea0 d43d 1ff4 c43d 62db 703d 8f20 ed3d
000003c0: cde3 783d 1f86 0b3e 9005 fe3c 4f92 533d
000003d0: 721d c23d 18e2 8c3d 3408 4d3e 1130 903d
000003e0: a60d 343e f873 993d a546 323e e576 093e
000003f0: e362 273e e4e8 663d 9240 083e abf1 153e
